CNNmodels/CNN-LeNet5-trained/task_1/task_1_new_model.pth (torch, 263859 bytes, 10 tensors)

conv1.weight f4 [6, 3, 5, 5]
-0.092247516 -0.10125904 -0.037567474 0.065139525 -0.12227629 0.023327114 -0.03568488 -0.023798518
-0.0074036587 -0.09510461 0.08582149 -0.104642175 0.109533384 0.13584596 0.010533545 -0.09117033
-0.06931396 0.04163993 0.1110451 0.09657254 -0.13181998 -0.026788348 0.113427304 0.106333524
0.089523874 0.035131574 -0.18144672 -0.118558794 -0.07191864 -0.111005045 -0.062219847 -0.15691933
-0.011548775 0.0433005 -0.09598493 0.086695805 -0.05551147 0.061535154 0.14060315 0.0537414
0.048516747 -0.10700137 0.016285239 0.13782276 -0.009458759 -0.035585586 -0.011097131 -0.033371277
0.17429231 0.10893303 -0.12287469 -0.071037434 -0.012988233 -0.027856681 -0.041359793 -0.06662068
-0.12046665 -0.0041695563 0.0028563708 -0.075664304 -0.10860758 0.053028204 0.10372857 0.13522416
0.03330958 -0.0022491757 -0.06297587 0.10834787 0.113073826 -0.08497358 -0.07727977 -0.1261243
-0.00038068593 0.14103685 0.044460155 -0.11270069 -0.18786794 0.00037471057 0.07061503 0.052032743
-0.11407156 -0.044048637 0.044928342 -0.010711271 0.07310387 -0.008220978 -0.057637166 -0.0025828674
0.081568696 0.06644671 0.029687118 -0.0111180125 -0.089250974 0.034896042 0.072509244 -0.09958995
-0.0005090341 -0.043427568 -0.050369054 0.10177612 -0.07888894 0.06863826 0.093437046 -0.002308007
-0.053191956 0.05812223 0.07327771 0.11418634 -0.045920562 -0.08496412 0.07886789 0.13716714
0.04566876 0.10370099 -0.0042687794 -0.0117825 0.12208628 0.16740853 0.09299718 -0.017061837
0.096599996 0.009580698 0.12323487 0.14652698 -0.09422818 0.0845926 0.1306506 -0.05252899
-0.053282436 0.09917457 0.088085294 0.026005583 -0.13674927 0.105997026 -0.015136396 -0.08352114
-0.0696803 -0.001029652 -0.17498092 -0.03916638 -0.015641805 -0.14741658 -0.07158951 -0.20225881
-0.13276196 0.073121816 -0.033145558 -0.12858182 -0.2006046 -0.04407942 -0.10826464 0.016819302
0.005448267 -0.102772675 0.07781897 -0.11331767 0.033951245 0.15883984 0.03926288 -0.018230736
-0.114008635 -0.08211029 -0.07468176 0.146036 0.0034219017 -0.13938016 0.0054492587 0.0607596
0.092578374 -0.02968758 -0.023097413 -0.06251316 -0.08466843 -0.06863006 -0.13114549 -0.0047458587
0.05159555 -0.01064352 0.12549056 0.08435027 -0.11992525 -0.045438267 -0.046455394 0.039226603
0.15770984 -0.16868307 -0.09506071 0.11061161 -0.0009653586 -0.014509451 0.0068325913 0.08732471
-0.046801414 -0.04600022 0.11811524 -0.09499368 -0.06252574 -0.009048648 -0.001197523 0.0908085
-0.05926371 0.13874136 0.10489287 0.042918276 -0.08027761 0.09485201 0.1222216 0.015831321
0.14715184 0.036428627 -0.04744003 0.10298797 0.10649337 -0.043863002 0.035329822 0.008089696
-0.0659889 0.027508624 0.068606175 -0.030665068 -0.07013731 0.01346627 0.09866603 -0.011388535
-0.11547581 0.109771505 0.033475958 -0.03086849 -0.067105286 -0.14761825 0.2406754 0.21476081
-0.06953107 -0.081985146 -0.011871116 0.22678575 0.202472 0.047120087 0.032980844 -0.029556934
0.21743576 0.07207498 -0.14396608 -0.007416422 0.0024505386 0.09958235 -0.0022026498 -0.2227178
-0.044303775 -0.03540868 -0.026309911 -0.050026167 0.028868621 0.074328676 0.07076567 -0.11312049
00000000: 44ec bcbd e660 cfbd 5ae0 19bd df67 853d
00000010: fe6b fabd 8118 bf3c 4f2a 12bd 1cf5 c2bc
00000020: 649a f2bb 35c6 c2bd 2dc3 af3d a34e d6bd
00000030: 0a53 e03d 341b 0b3e e494 2c3c 83b7 babd
00000040: 7af4 8dbd a28e 2a3d 9d6b e33d d3c7 c53d
00000050: d1fb 06be 3d73 dbbc 934c e83d 64c5 d93d
00000060: 4b58 b73d 20e6 0f3d 2bcd 39be f4ce f2bd
00000070: 144a 93bd 9d56 e3bd 3dda 7ebd 76af 20be
00000080: 1337 3dbc dd5b 313d bf93 c4bd 928d b13d
00000090: ff5f 63bd 490c 7c3d 46fa 0f3e f11f 5c3d
000000a0: 7fb9 463d 8923 dbbd 9f68 853c 6921 0d3e
000000b0: e9f8 1abc 31c2 11bd bed0 35bc 52b0 08bd
000000c0: af79 323e 4818 df3d baa5 fbbd 137c 91bd
000000d0: 99cc 54bc b233 e4bc e368 29bd 6c70 88bd
000000e0: 38b7 f6bd c6a0 88bb f331 3b3b e3f5 9abd
000000f0: a76d debd 1a34 593d a56f d43d 3478 0a3e
00000100: a06f 083d e866 13bb 7ef9 80bd 7de5 dd3d
00000110: 4093 e73d a106 aebd db44 9ebd ba26 01be
00000120: cd96 c7b9 f76b 103e da1b 363d 9fcf e6bd
00000130: 7460 40be cd74 c439 9d9e 903d 4920 553d
00000140: 5a9e e9bd 586c 34bd c806 383d 547e 2fbc
00000150: 7bb7 953d 48b1 06bc f314 6cbd 5345 29bb
00000160: 7d0d a73d 3615 883d 6632 f33c 5328 36bc
00000170: 37c9 b6bd 27ef 0e3d ba7f 943d d1f5 cbbd
00000180: b370 05ba 1be1 31bd c84f 4ebd 0070 d03d
00000190: 8690 a1bd 3792 8c3d ec5b bf3d ef41 17bb
000001a0: cfdf 59bd 9311 6e3d a012 963d 87da e93d
000001b0: 3317 3cbd ab01 aebd 7d85 a13d 8b75 0c3e
000001c0: 2a0f 3b3d 2f61 d43d 1ee1 8bbb 630b 41bc
000001d0: 5f08 fa3d 246d 2b3e 4e75 be3d 44c5 8bbc
000001e0: 38d6 c53d 5cf8 1c3c 9062 fc3d 2b0b 163e
000001f0: b4fa c0bd e33e ad3d 45c9 053e a328 57bd
00000200: af3e 5abd 091c cb3d 1066 b43d a909 d53c
00000210: 0008 0cbe f814 d93d a5fe 77bc 220d abbd
00000220: 8cb4 8ebd 63f5 86ba 332e 33be ed6c 20bd
00000230: 3e23 80bc 5ff4 16be 859d 92bd ef1c 4fbe
00000240: c0f2 07be e4c0 953d a3c3 07bd f4aa 03be
00000250: 4b6b 4dbe 9f8c 34bd dab9 ddbd a2c8 893c
00000260: 6087 b23b 7b7a d2bd 8d5f 9f3d 1813 e8bd
00000270: 7610 0b3d e9a6 223e 1dd2 203d a058 95bc
00000280: 5c7d e9bd 7129 a8bd c0f2 98bd 768a 153e
00000290: fc41 603b acb9 0ebe b28f b23b 0fdf 783d
000002a0: bb99 bd3d 5e33 f3bc c936 bdbc e606 80bd
000002b0: a466 adbd eb8d 8cbd 014b 06be 2683 9bbb
000002c0: db55 533d 2962 2ebc 9980 003e d6bf ac3d
000002d0: 5f9b f5bd 7a1d 3abd 0348 3ebd 13ac 203d
000002e0: b07e 213e 41bb 2cbe 31af c2bd 5788 e23d
000002f0: 1e10 7dba 0cb9 6dbc eee3 df3b 4cd7 b23d
00000300: d7b2 3fbd ba6a 3cbd 67e6 f13d 0c8c c2bd
00000310: 7f0d 80bd c840 14bc 34f6 9cba cff9 b93d
00000320: 81be 72bd 3712 0e3e 13d2 d63d 13cb 2f3d
00000330: 9668 a4bd c541 c23d 514f fa3d b0b0 813c
00000340: f9ae 163e 2f36 153d 7a50 42bd 5beb d23d
00000350: 3219 da3d b1a9 33bd 01b6 103d a58a 043c
00000360: 3025 87bd c459 e13c 6581 8c3d 4f35 fbbc
00000370: 26a4 8fbd a1a1 5c3c 6a11 ca3d fa96 3abc
00000380: 957e ecbd e2cf e03d 161e 093d eadf fcbc
00000390: 7f6e 89bd 3d29 17be 9d73 763e 42ea 5b3e
000003a0: 4e66 8ebd d4e7 a7bd 127f 42bc 863a 683e
000003b0: d254 4f3e fe00 413d ec16 073d 6221 f2bc
000003c0: 7ba7 5e3e 0c9c 933d d86b 13be 7505 f3bb
000003d0: 3799 203b d5f1 cb3d 555a 10bb 2310 64be
000003e0: e077 35bd b108 11bd e287 d7bc 3de8 4cbd
000003f0: e37d ec3c a239 983d 97ed 903d b7ab e7bd

conv1.bias f4 [6]
-0.1318291 0.1243567 0.067372106 -0.034881204 -0.012438036 0.023897637
00000000: 35fe 06be baae fe3d 63fa 893d 98df 0ebd
00000010: e7c8 4bbc fac4 c33c

conv2.weight f4 [16, 6, 5, 5]
-0.05461689 -0.04640235 -0.01593626 0.057683 0.07650149 -0.064421 -0.085311815 -0.05346904
0.013217296 0.0769642 0.033448517 -0.095006905 -0.08690058 -0.083276704 0.059330314 0.06912257
0.012980726 -0.012229305 -0.1013327 0.0046213735 0.00040087377 0.060861293 0.030984068 -0.025522662
-0.042242125 -0.021844823 0.080068275 0.15487361 0.2504892 0.15152141 -0.05087993 -0.19026776
0.0010129805 0.34363946 0.267719 -0.059872925 -0.31865227 -0.17756915 0.22162804 0.171482
-0.09449886 -0.22422032 -0.23680888 0.06802308 -0.040583223 0.021461545 -0.18920527 -0.1449157
0.059861764 -0.0067704497 -0.067776464 -0.027189994 0.064071335 0.01892371 -0.09169777 -0.080918975
0.03631875 0.10718537 -0.07849295 -0.09294401 0.006027373 0.097012095 0.0852342 -0.07499598
-0.12829162 -0.05529557 0.10393297 0.027982721 -0.0190397 -0.07998367 0.021698939 0.027549198
0.1219535 0.06129412 -0.055005137 -0.04638196 -0.24004583 -0.1884084 -0.15374005 -0.14855589
-0.037454125 -0.028953457 -0.13488033 -0.33448207 -0.081467055 0.27451298 0.24498507 0.19849117
-0.2574716 -0.2353991 0.3091495 0.23565513 0.28973755 -0.07703916 -0.024816537 0.16623595
0.056214288 0.1814308 0.05917095 -0.06537816 0.019947607 -0.04744982 -0.07200314 0.0077547994
0.045438826 0.01867858 -0.056447886 -0.040996894 -0.0003454576 0.06707595 0.025137728 -0.06434486
-0.07690868 -0.056347463 -0.0064711487 0.08492911 -0.007694033 -0.029272394 -0.0075878515 0.0013047737
0.012769422 -0.056891657 -0.052346893 -0.0048343404 -0.023123689 0.043532576 -0.031548228 -0.025712732
0.010341244 -0.00534731 0.065899946 -0.01221769 0.03028558 0.07675872 -0.0049296296 -0.06797818
-0.05503811 -0.0034740234 0.07752316 -0.07683896 -0.0683616 -0.11684919 0.03378828 -0.0050647184
-0.034218207 0.028611414 -0.050684664 0.062892385 0.06849505 0.006092572 0.080808625 -0.0733122
-0.118362814 0.12720251 0.025113067 0.026478449 -0.054362524 -0.08501802 0.10859718 0.04884304
-0.1279958 -0.20559622 -0.37962908 -0.15523207 -0.20362785 0.23379974 0.061264586 0.057974882
0.13442309 0.07341018 0.07099175 0.03266384 0.11666492 0.1587117 0.06704569 -0.03651164
0.01116337 -0.03506953 -0.068815984 -0.0014280747 0.020060912 -0.015355899 0.047396168 0.029218357
0.03479862 -0.011710811 0.06767871 0.077249624 0.0062739 0.055103004 -0.08015469 -0.049003784
-0.09659507 -0.014363228 -0.06369984 -0.043150388 -0.008677338 -0.057243872 -0.006880595 0.004171134
-0.00076651387 0.007855909 0.024218539 0.14389107 0.021655964 0.010901716 0.027591182 0.06392404
0.18291625 0.10283366 -0.053487416 -0.092198215 -0.07415101 0.05504221 0.09794005 -0.13403797
-0.25344163 -0.25676158 -0.08810899 -0.12111396 0.048046824 -0.023864197 -0.14885715 -0.02026985
-0.063712545 -0.02721893 -0.031185914 0.0013222379 -0.07392368 -0.0134888785 -0.026392156 -0.046313908
-0.023951838 0.010449317 -0.01406498 0.023325248 0.048466686 0.095577694 -0.008728658 0.008665912
-0.015594306 0.006411292 0.025860654 0.016345339 -0.0024933699 -0.05627664 -0.0079383105 -0.030825233
-0.0009796678 -0.062458243 -0.057469852 -0.017627716 0.030631945 0.020709978 0.021114688 0.007675323
00000000: f6b5 5fbd 6410 3ebd c28c 82bc 0245 6c3d
00000010: d0ac 9c3d 28ef 83bd f6b7 aebd 5a02 5bbd
00000020: 5c8d 583c 689f 9d3d 5001 093d fb92 c2bd
00000030: eef8 b1bd fa8c aabd 5804 733d 2290 8d3d
00000040: 1cad 543c 6c5d 48bc 8587 cfbd e46e 973b
00000050: 5e2c d239 b149 793d 4dd2 fd3c e714 d1bc
00000060: 1406 2dbd eaf3 b2bc d6fa a33d 3097 1e3e
00000070: 1f40 803e 6e28 1b3e 7967 50bd 8dd5 42be
00000080: fcc5 843a 83f1 af3e 7712 893e 503d 75bd
00000090: 6426 a3be b0d4 35be 76f2 623e fa98 2f3e
000000a0: 9e88 c1bd 039a 65be 077e 72be af4f 8b3d
000000b0: 983a 26bd 1fd0 af3c 07bf 41be c864 14be
000000c0: 9c31 753d a6da ddbb 63ce 8abd 8dbd debc
000000d0: d537 833d e505 9b3c 0acc bbbd d9b8 a5bd
000000e0: f8c2 143d 0184 db3d e9c0 a0bd 6e59 bebd
000000f0: 4581 c53b 47ae c63d 458f ae3d 7e97 99bd
00000100: e15e 03be 9c7d 62bd cfda d43d 053c e53c
00000110: 25f9 9bbc 7ace a3bd f9c1 b13c dbae e13c
00000120: c2c2 f93d 8b0f 7b3d 114d 61bd 03fb 3dbd
00000130: 93ce 75be 22ee 40be 086e 1dbe 091f 18be
00000140: 7f69 19bd cd2f edbc 121e 0abe 3c41 abbe
00000150: 33d8 a6bd f78c 8c3e 5edd 7a3e 4541 4b3e
00000160: 51d3 83be 760c 71be d848 9e3e 944f 713e
00000170: 7b58 943e b5c6 9dbd 0d4c cbbc c239 2a3e
00000180: f440 663d ffc8 393e 3d5d 723d fce4 85bd
00000190: 2a69 a33c be5a 42bd 6276 93bd f91b fe3b
000001a0: 101e 3a3d d203 993c e635 67bd 5cec 27bd
000001b0: 891e b5b9 1e5f 893d a3ed cd3c 3dc7 83bd
000001c0: 4c82 9dbd 99cc 66bd ee0b d4bb 50ef ad3d
000001d0: 3a1e fcbb a9cc efbc 83a3 f8bb f104 ab3a
000001e0: d636 513c 3a07 69bd b269 56bd 6369 9ebb
000001f0: e46d bdbc 374f 323d b738 01bd 82a3 d2bc
00000200: 526e 293c 7d38 afbb 8df6 863d b52c 48bc
00000210: 7719 f83c ad33 9d3d bb88 a1bb 2538 8bbd
00000220: a46f 61bd 71ac 63bb 76c4 9e3d bf5d 9dbd
00000230: 2b01 8cbd a14e efbd 9465 0a3d f0f5 a5bb
00000240: 6428 0cbd 7c62 ea3c b99a 4fbd b9cd 803d
00000250: 2247 8c3d 33a4 c73b fe7e a53d b524 96bd
00000260: 3468 f2bd 6041 023e ebb9 cd3c 55e9 d83c
00000270: 3dab 5ebd ed1d aebd 3368 de3d a40f 483d
00000280: 5511 03be d187 52be be5e c2be 28f5 1ebe
00000290: d283 50be 3369 6f3e 93f0 7a3d 1277 6d3d
000002a0: 35a6 093e 1458 963d 1f64 913d 85ca 053d
000002b0: 04ee ee3d 5285 223e 404f 893d 3b8d 15bd
000002c0: 91e6 363c 11a5 0fbd 65ef 8cbd 3c2e bbba
000002d0: c856 a43c 4f97 7bbc 7c22 423d 565b ef3c
000002e0: ff88 0e3d b4de 3fbc 239b 8a3d 0d35 9e3d
000002f0: 4a95 cd3b b0b3 613d 2428 a4bd 31b8 48bd
00000300: a3d3 c5bd bf53 6bbc 1075 82bd 76be 30bd
00000310: 652b 0ebc 8d78 6abd 9d76 e1bb 02ae 883b
00000320: e0ef 48ba 12b6 003c f565 c63c 2e58 133e
00000330: d967 b13c 1c9d 323c e706 e23c 9bea 823d
00000340: 664e 3b3e 749a d23d 9f15 5bbd 6bd2 bcbd
00000350: 7cdc 97bd f173 613d cb94 c83d 4041 09be
00000360: 1ac3 81be 4176 83be 7c72 b4bd 990a f8bd
00000370: bfcc 443d d97e c3bc 026e 18be f50c a6bc
00000380: b97b 82bd 3cfa debc 9a79 ffbc f14e ad3a
00000390: 4c65 97bd 7500 5dbc 5d34 d8bc a7b3 3dbd
000003a0: a536 c4bc 9d33 2b3c cd70 66bc 9714 bf3c
000003b0: 0185 463d 3dbe c33d a502 0fbc 78fb 0d3c
000003c0: 437f 7fbc d115 d23b b9d9 d33c a9e6 853c
000003d0: ce67 23bb 5682 66bd b00f 02bc 3385 fcbc
000003e0: 3268 80ba 37d4 7fbd 8265 6bbd 0068 90bc
000003f0: d8ef fa3c f9a7 a93c b6f8 ac3c 4781 fb3b

conv2.bias f4 [16]
0.07759435 0.3466683 -0.15610658 -0.14942415 0.53495234 -0.29302824 0.026423091 0.20054595
-0.36737436 -0.3329427 0.1977681 0.20541188 0.08409326 0.18932559 0.005453413 -0.29067925
00000000: c9e9 9e3d 827e b13e 67da 1fbe a502 19be
00000010: a3f2 083f cc07 96be 3d75 d83c eb5b 4d3e
00000020: 7e18 bcbe 7777 aabe b983 4a3e 7e57 523e
00000030: 1639 ac3d 91de 413e 8bb2 b23b e9d3 94be

fc1.weight f4 [120, 400]
0.12608127 0.09115185 0.07367117 -0.011913119 0.014298404 -0.00961624 0.06955487 0.06690924
0.009212871 0.042375635 0.10912335 -0.0056190696 -0.015562515 0.011784802 0.07440519 0.12511508
-0.00023292063 0.09097419 0.07714275 0.037995793 0.10779084 0.0676902 -0.02192192 -0.012715423
-0.013507601 -0.023642315 0.02863075 0.057390846 0.034584016 0.0041926447 -0.057971083 -0.043993678
-0.028600765 -0.018050168 -0.04817102 -0.1039028 -0.003751079 0.02204393 -0.071254134 -0.042086855
0.002581838 -0.047901213 -0.035508152 -0.085596025 -0.05133349 -0.0036054398 0.0673494 0.06162161
0.0028651454 0.02616823 -0.04922114 -0.063330285 -0.07968882 -0.07130021 0.0187045 -0.05871894
-0.056187473 -0.09631124 -0.08494746 -0.029663315 0.0058885235 -0.03984587 -0.12028487 -0.08619883
-0.06458415 -0.013381778 -0.05732089 -0.010025523 -0.043105755 0.021816667 0.0067416406 -0.069479235
-0.0661679 -0.06599572 0.027798317 0.054615017 0.04355172 -0.026699802 0.052496284 -0.036314826
0.00788385 0.052193098 0.05479287 0.00019581139 -0.008983437 0.027754433 0.057191018 0.05127742
0.053300783 -0.004779387 0.082048036 0.10551805 0.053064134 0.0226532 0.013030579 0.033191457
0.031868268 0.041770402 0.059818182 0.072459854 -0.13621034 -0.07055064 -0.1028047 -0.09343909
0.03318542 -0.050686713 -0.07504896 0.027547697 0.0029658268 -0.017066574 0.03321003 -0.013707788
0.02541219 -0.0079737 0.014299961 -0.002506027 0.050703697 0.020438837 0.024975764 0.034651313
-0.020239867 0.029967992 -0.00085469405 -0.02134134 -0.0943297 -0.06575736 -0.021753602 0.015134455
-0.02255802 0.03239459 0.012352146 0.005828179 0.099153124 0.002747678 0.047182858 -0.04928674
0.036593817 0.088965625 0.058652315 -0.012337119 -0.11472781 0.013690775 0.03174533 0.027817164
0.056145106 -0.05728059 -0.052047025 0.06770039 0.008824208 -0.01324843 -0.043974746 0.07161401
0.13879322 0.106389634 0.139009 0.08768891 0.12212907 0.091701575 0.097666726 0.15585014
0.05323951 0.22985113 0.13332045 0.14857776 0.17819051 0.090150386 0.20443256 0.06493531
0.01164911 0.0713676 0.067563556 0.05240158 0.043872412 0.022107778 0.056655474 0.054535743
0.0027255039 0.008446906 0.084560335 -0.036742613 0.095564865 -0.03552899 0.015348706 -0.0002224592
0.0174584 0.011081459 0.06533453 0.04316569 -0.0031299382 0.031825732 0.06437894 0.004562097
0.022284457 0.039989315 0.019933706 0.07899484 0.08974384 0.064260185 0.10459878 0.09396354
-0.034483932 0.07022293 -0.030708088 -0.06648209 0.06071206 -0.009109348 0.03389679 0.01840894
-0.011594011 0.031946536 0.020702489 0.021755153 0.07889344 0.052726675 0.072955 0.0645292
0.066050135 0.05438601 0.051710457 0.08296364 0.08547795 -0.004434503 0.022818195 0.09179816
0.09091243 0.14166234 0.035101645 0.06304252 0.043466017 0.15684104 0.05270824 0.07564218
0.013238584 0.046267282 0.123217665 0.06506547 0.057200935 0.04981482 0.037439372 0.105473466
0.07609302 0.040287927 0.07633228 0.06500693 0.1655036 -0.095688544 0.02105086 -0.020832777
-0.007148824 0.01916914 -0.0116465865 -0.0034101275 -0.06020989 0.03269336 0.0020821476 0.00067786773
00000000: 731b 013e d2ad ba3d e9e0 963d 3e2f 43bc
00000010: da43 6a3c 6f8d 1dbc c972 8e3d b607 893d
00000020: 95f1 163c 1392 2d3d 107c df3d 2c20 b8bb
00000030: ebf9 7ebc 0b15 413c c061 983d 2b1e 003e
00000040: 283c 74b9 ad50 ba3d 05fd 9d3d 7aa1 1b3d
00000050: 72c1 dc3d 29a1 8a3d 9995 b3bc 5954 50bc
00000060: fc4e 5dbc 87ad c1bc 098b ea3c aa12 6b3d
00000070: f8a7 0d3d 7462 893b 1673 6dbd b732 34bd
00000080: 274c eabc f2dd 93bc fa4e 45bd feca d4bd
00000090: aad4 75bb 7995 b43c b0ed 91bd 4463 2cbd
000000a0: 0e34 293b 1034 44bd ff70 11bd f84c afbd
000000b0: 1143 52bd 3e49 6cbb 7bee 893d f166 7c3d
000000c0: 2ac5 3b3b c25e d63c 1b9c 49bd 4fb3 81bd
000000d0: e433 a3bd d805 92bd 2e3a 993c 4583 70bd
000000e0: d624 66bd d43e c5bd eff8 adbd 7b00 f3bc
000000f0: 84f4 c03b 6c35 23bd ea57 f6bd 0389 b0bd
00000100: b244 84bd 3f3f 5bbc 4fc9 6abd 1742 24bc
00000110: a98f 30bd deb8 b23c fbe8 dc3b 214b 8ebd
00000120: 0983 87bd c428 87bd 4cb9 e33c ffb3 5f3d
00000130: 4a63 323d 8bb9 dabc 5806 573d dbbe 14bd
00000140: 432b 013c 6ec8 553d 7d6e 603d b852 4d39
00000150: 442f 13bc 445d e33c 2141 6a3d 4608 523d
00000160: ec51 5a3d 679c 9cbb cd08 a83d d919 d83d
00000170: c759 593d 3493 b93c 367e 553c c4f3 073d
00000180: 4d88 023d 7117 2b3d e903 753d d565 943d
00000190: b97a 0bbe db7c 90bd 458b d2bd fe5c bfbd
000001a0: 6fed 073d df9c 4fbd 45b3 99bd b5ab e13c
000001b0: 515e 423b 33cf 8bbc 3e07 083d a196 60bc
000001c0: 3a2d d03c 1fa4 02bc 624a 6a3c 283c 24bb
000001d0: aeae 4f3d 596f a73c f999 cc3c 89ee 0d3d
000001e0: 14ce a5bc 6f7f f53c 8c0d 60ba 09d4 aebc
000001f0: ee2f c1bd cbab 86bd 9c34 b2bc 81f6 773c
00000200: 99cb b8bc 31b0 043d a860 4a3c 4ffa be3b
00000210: cb10 cb3d 6312 343b d042 413d e5e0 49bd
00000220: 66e3 153d 9c33 b63d 693d 703d a121 4abc
00000230: 6af6 eabd 464f 603c 6407 023d d2e0 e33c
00000240: 69f8 653d 0d9f 6abd 432f 55bd 81a6 8a3d
00000250: 6993 103c f10f 59bc dd1e 34bd 5eaa 923d
00000260: cf1f 0e3e cfe2 d93d 6058 0e3e 3e96 b33d
00000270: ce1e fa3d 09ce bb3d 7e05 c83d 2e97 1f3e
00000280: ac11 5a3d 185e 6b3e 2885 083e c524 183e
00000290: 9377 363e c4a0 b83d c556 513e cefc 843d
000002a0: e9db 3e3c 2d29 923d c35e 8a3d 0aa3 563d
000002b0: 8fb3 333d 5f1b b53c 920f 683d df60 5f3d
000002c0: 5e9e 323b e464 0a3c f82d ad3d 6c7f 16bd
000002d0: 83b7 c33d d986 11bd 2479 7b3c f043 69b9
000002e0: eb04 8f3c 028f 353c 1cce 853d 82ce 303d
000002f0: a61f 4dbb b35b 023d 1bd9 833d a57d 953b
00000300: e58d b63c d6cb 233d 034c a33c 0cc8 a13d
00000310: 9ecb b73d d89a 833d e337 d63d f56f c03d
00000320: 063f 0dbd 0ad1 8f3d 878f fbbc c327 88bd
00000330: 36ad 783d 603f 15bc 5cd7 0a3d 58ce 963c
00000340: cff4 3dbc 5fda 023d 4498 a93c dd37 b23c
00000350: e292 a13d edf7 573d 6e69 953d e327 843d
00000360: 4b45 873d ddc3 5e3d 58ce 533d d7e8 a93d
00000370: 100f af3d 4f4f 91bb 39ed ba3c ac00 bc3d
00000380: 4c30 ba3d ef0f 113e bec6 0f3d 701c 813d
00000390: 6c09 323d f09a 203e 98e4 573d 4aea 9a3d
000003a0: a5e6 583c c382 3d3d 8b59 fc3d 0c41 853d
000003b0: 874b 6a3d a00a 4c3d 075a 193d 7902 d83d
000003c0: a8d6 9b3d f404 253d 1954 9c3d 5a22 853d
000003d0: c779 293e 5bf8 c3bd da72 ac3c 80a9 aabc
000003e0: af40 eabb 9a08 9d3c 53d1 3ebc 727c 5fbb
000003f0: a59e 76bd 79e9 053d a474 083b efb2 313a

fc1.bias f4 [120]
-0.3712618 0.32195804 -0.036644675 0.37743375 -0.23756343 0.08058799 0.059388958 0.119497344
0.11517113 0.33645296 -0.07923125 0.2858072 0.21697512 0.15554179 0.033456426 -0.3475031
0.30028132 0.24164738 -0.017730365 -0.04607299 0.44659662 0.21790096 -0.21071842 0.17363639
0.012084371 -0.0019540598 0.09134635 -0.15804464 0.0016228224 -0.057055183 0.04261391 -0.037835468
-0.018463062 -0.014130792 -0.07375146 0.3329109 0.08429135 -0.22891255 0.28823093 -0.31154943
0.22147444 0.10711506 0.013498722 -0.0017386716 -0.024861278 -0.10796009 -0.22947237 -0.0589808
-0.309331 0.24990803 0.003940477 -0.041799437 -0.009701847 0.060026925 -0.29257244 -0.003112873
-0.017344443 -0.061005883 0.027163928 -0.07634893 0.019019557 -0.29089442 -0.11533091 0.0038354665
-0.04095649 0.13571076 0.18073681 -0.06789651 -0.12041687 -0.18409975 -0.102351084 -0.0023079605
0.0014750749 -0.40336627 -0.04742259 0.38068286 0.29815266 0.06063536 0.13092948 -0.032217383
-0.07504708 0.2045697 0.25651488 0.0092999805 -0.14032231 0.336426 -0.0035967606 -0.022928204
-0.0150825335 0.33306316 -0.3538692 0.14205424 -0.017364694 -0.034261152 -0.044441696 0.06013647
-0.017950613 0.34454927 0.026082695 0.11778238 -0.0199259 -0.020601295 -0.1787472 0.0074566863
-0.0082973745 0.014377932 0.29818162 -0.0004070003 -0.025796805 0.41882432 0.40702626 0.16470404
-0.006165332 -0.12818643 0.14471583 -0.16568992 -0.0469058 0.021844767 0.053300407 -0.061358992
00000000: 0716 bebe afd7 a43e ba18 16bd ff3e c13e
00000010: d443 73be 510b a53d d641 733d 06bb f43d
00000020: d7de eb3d 9043 ac3e fe43 a2bd 5255 923e
00000030: ba2e 5e3e 5946 1f3e 9b09 093d edeb b1be
00000040: 79be 993e 6972 773e 453f 91bc 08b7 3cbd
00000050: 50a8 e43e 6e21 5f3e 92c6 57be bdcd 313e
00000060: 87fd 453c af0f 00bb cc13 bb3d 74d6 21be
00000070: e2b4 d43a b2b2 69bd ec8b 2e3d 5df9 1abd
00000080: d93f 97bc d684 67bc 010b 97bd 4c73 aa3e
00000090: f1a0 ac3d 0d68 6abe 0193 933e 6883 9fbe
000000a0: 32ca 623e 245f db3d be29 5d3c 23e4 e3ba
000000b0: e1a9 cbbc 2e1a ddbd cefa 6abe da95 71bd
000000c0: a260 9ebe e4e7 7f3e 1e1f 813b e335 2bbd
000000d0: 7ff4 1ebc cbde 753d 0ecc 95be 5801 4cbb
000000e0: ef15 8ebc 4ee1 79bd e386 de3c d45c 9cbd
000000f0: e7ce 9b3c 1df0 94be 9d32 ecbd 735c 7b3b
00000100: fec1 27bd c3f7 0a3e 1213 393e 530d 8bbd
00000110: 1f9d f6bd a584 3cbe 729d d1bd 2741 17bb
00000120: 4d57 c13a 0686 cebe 313e 42bd dde8 c23e
00000130: 77a7 983e c95c 783d 6112 063e 60f6 03bd
00000140: 49b2 99bd b87a 513e eb55 833e f25e 183c
00000150: a7b0 0fbe 0740 ac3e a1b7 6bbb eed3 bbbc
00000160: bb1c 77bc 4187 aa3e 582e b5be ab76 113e
00000170: 6740 8ebc 6c55 0cbd 7f08 36bd a951 763d
00000180: 2a0d 93bc c368 b03e 60ab d53c e337 f13d
00000190: a43b a3bc 0cc4 a8bc 8209 37be 3857 f43b
000001a0: b6f1 07bc 6b91 6b3c 43ab 983e a862 d5b9
000001b0: d253 d3bc 2470 d63e bf65 d03e 2da8 283e
000001c0: 8e06 cabb 4e43 03be 6330 143e 9eaa 29be
000001d0: 4c20 40bd ccf3 b23c 8751 5a3d 9153 7bbd

fc2.weight f4 [84, 120]
-0.035375595 0.072560556 -0.08757601 -0.030618086 0.050137304 -0.057262644 -0.094743155 -0.044026393
-0.08128879 0.016525775 -0.035914537 0.029679174 -0.0038473718 0.018282609 0.08623561 0.010798122
-0.019913701 -0.07746085 -0.052456193 0.092354745 -0.0063456544 -0.08623602 0.04754536 -0.07816704
-0.027457103 -0.008703554 0.06970289 -0.07421056 -0.06209805 -0.019770732 0.020376226 -0.060672134
-0.013498649 0.076536894 -0.1001137 -0.028238514 -0.12024757 0.021180883 -0.040563468 -0.080480725
0.050232425 -0.072684765 0.068986736 -0.07748051 0.039079707 -0.08159568 -0.008552299 0.01995875
-0.016996644 0.0508888 -0.064638466 0.05079693 0.056935593 -0.010932967 -0.07486814 -0.05633547
0.048371065 -0.028479014 -0.024578892 0.031391405 -0.031745818 -0.07366332 0.003257016 -0.06170683
0.080762595 -0.09256736 -0.09539179 0.008699484 -0.012760467 -0.090138055 -0.084787294 0.07493952
-0.03185343 -0.0061735692 0.006571627 -0.09186608 -0.08461953 0.008112324 0.009598049 0.014581174
-0.01793788 0.05111787 0.01432293 0.058565397 0.042898748 -0.06994033 0.037808463 0.021579593
0.079132386 0.01988708 -0.0049369475 -0.02248663 0.0061241323 -0.08949135 0.06157057 -0.029237958
-0.034294307 -0.06035027 -0.040814966 -0.038399413 0.056070086 -0.057570323 -0.03925648 -0.07890612
-0.089356005 0.040988997 -0.11604135 0.08171712 0.018550709 -0.058928143 -0.034998745 -0.022367004
-0.012762321 -0.022524195 0.07892442 0.013658835 0.026036693 0.04757445 0.0200198 0.08750124
0.075686745 0.037576605 0.07023985 0.22214283 0.012158719 0.009100148 -0.008938212 -0.17100228
0.062374327 0.030392058 0.09773072 0.08201822 -0.16625743 0.03595859 -0.03221912 0.09555449
0.08647882 -0.13532436 -0.005514291 -0.0013838003 0.14256132 -0.043196507 0.09250504 -0.2327675
-0.0439419 -0.012721131 -0.09333621 -0.09334346 -0.06310084 -0.04452113 -0.087166965 -0.15385251
0.07600865 -0.06677257 -0.1705749 0.08132243 -0.15248202 -0.01737759 -0.030491076 -0.04245155
-0.14010917 -0.0833441 -0.008279219 -0.053674653 -0.00569373 -0.28828627 -0.18313345 0.005093082
-0.07941403 0.10870791 -0.04473558 -0.04776603 -0.026143659 0.14367048 -0.010084999 -0.15707734
-0.10045193 -0.07793994 -0.0023804193 -0.021636967 0.056504924 0.024518777 0.06435937 0.13000503
0.021179773 -0.013743155 -0.08040994 0.042782426 0.004538089 -0.098199055 -0.06414259 -0.14712875
0.11051522 -0.0873799 -0.018268012 0.036585983 -0.15808491 0.10597779 0.046175838 -0.054202896
-0.034332335 0.0903491 0.046009593 0.042888947 -0.20765391 0.17060259 -0.0422363 0.030152641
0.08317667 -0.42164013 0.051372554 -0.15835816 0.01903309 0.021568269 -0.0337044 -0.17664605
-0.03520878 0.055092286 0.009120191 0.005903627 -0.01004869 -0.0950021 -0.04447391 0.023612505
0.11980522 0.06999816 -0.07997652 0.0064534578 -0.0649425 0.11568302 0.08664167 -0.038399156
0.037804708 0.04903956 0.005518705 -0.065674886 0.0020464237 0.06467444 0.08111841 -0.006072387
0.04350993 0.05304399 0.055552065 0.021372566 -0.0618485 0.04552259 -0.07362474 -0.07881081
-0.09744746 -0.09728431 -0.02326519 -0.10926105 0.02931935 -0.000914049 0.028772436 0.008864409
00000000: 00e6 10bd a19a 943d 0d5b b3bd c8d2 fabc
00000010: c65c 4d3d 3c8c 6abd b308 c2bd 0555 34bd
00000020: bd7a a6bd 1061 873c 1f1b 13bd bd21 f33c
00000030: 3024 7cbb 69c5 953c 4c9c b03d 9bea 303c
00000040: 0f22 a3bc cba3 9ebd 4edc 56bd 7c24 bd3d
00000050: 35ef cfbb 839c b0bd ecbe 423d 0b16 a0bd
00000060: b8ed e0bc 5a99 0ebc 64c0 8e3d b5fb 97bd
00000070: 865a 7ebd 3bf6 a1bc 0bec a63c 5883 78bd
00000080: 7029 5dbc 60bf 9c3d 6908 cdbd 7554 e7bc
00000090: 5c44 f6bd 8883 ad3c e125 26bd 14d3 a4bd
000000a0: 84c0 4d3d c0db 94bd eb48 8d3d 1aae 9ebd
000000b0: 0b12 203d a31b a7bd f11e 0cbc 8880 a33c
000000c0: 8c3c 8bbc c670 503d 2c61 84bd 7110 503d
000000d0: 4c35 693d 3020 33bc 7854 99bd 06c0 66bd
000000e0: bd20 463d d24c e9bc ac59 c9bc 4694 003d
000000f0: e707 02bd cbdc 96bd a973 553b 4dc0 7cbd
00000100: dc66 a53d f593 bdbd c55c c3bd 4888 0e3c
00000110: 4711 51bc 4d9a b8bd f6a4 adbd e479 993d
00000120: be78 02bd a74b cabb ce56 d73b 4924 bcbd
00000130: 014d adbd 8ee9 043c 2341 1d3c e0e5 6e3c
00000140: 76f2 92bc f960 513d b9aa 6a3c 45e2 6f3d
00000150: 99b6 2f3d e03c 8fbd 0cdd 1a3d b0c7 b03c
00000160: 2910 a23d 3bea a23c 1ec6 a1bb e235 b8bc
00000170: f2ac c83b 3e47 b7bd 6c31 7c3d 7184 efbc
00000180: 3078 0cbd d831 77bd 982d 27bd b448 1dbd
00000190: bfa9 653d dcce 6bbd 67cb 20bd 8899 a1bd
000001a0: 4800 b7bd 14e4 273d 16a7 edbd 4e5b a73d
000001b0: a8f7 973c a35e 71bd d85a 0fbd 023b b7bc
000001c0: 0e19 51bc a984 b8bc 20a3 a13d 4ec9 5f3c
000001d0: e74a d53c 6ddd 423d 9000 a43c da33 b33d
000001e0: a701 9b3d ede9 193d e9d9 8f3d 6979 633e
000001f0: 5d35 473c ca18 153c 9471 12bc 391b 2fbe
00000200: 397c 7f3d c4f8 f83c 0b27 c83d 2bf9 a73d
00000210: 633f 2abe 5149 133d 32f8 03bd 13b2 c33d
00000220: cf1b b13d 7892 0abe 3ab1 b4bb a260 b5ba
00000230: 98fb 113e d2ee 30bd 4873 bd3d 9b5a 6ebe
00000240: 6cfc 33bd 4a6c 50bc 0e27 bfbd db2a bfbd
00000250: 033b 81bd ca5b 36bd 9884 b2bd 838b 1dbe
00000260: 6caa 9b3d 0fc0 88bd 30ab 2ebe 608c a63d
00000270: 3f24 1cbe 735b 8ebc 6cc8 f9bc ade1 2dbd
00000280: c778 0fbe 50b0 aabd 90a5 07bc f4d9 5bbd
00000290: 7892 babb 429a 93be 5687 3bbe dee3 a63b
000002a0: d3a3 a2bd 41a2 de3d a83c 37bd 50a6 43bd
000002b0: 3a2b d6bc 5b1e 133e 8d3b 25bc e2d8 20be
000002c0: beb9 cdbd fa9e 9fbd cf00 1cbb 0240 b1bc
000002d0: b571 673d 9adb c83c d8ce 833d 0a20 053e
000002e0: 3481 ad3c f82a 61bc f7ad a4bd a03c 2f3d
000002f0: 40b4 943b 961c c9bd 315d 83bd eba8 16be
00000300: ce55 e23d 3cf4 b2bd cca6 95bc 2fdb 153d
00000310: 03e1 21be e20a d93d e022 3d3d db03 5ebd
00000320: 10a0 0cbd f308 b93d 8e74 3c3d 52ac 2f3d
00000330: 3aa3 54be 72b2 2e3e f8ff 2cbd ac02 f73c
00000340: 8858 aa3d 37e1 d7be 076c 523d a428 22be
00000350: 48eb 9b3c f0af b03c a00d 0abd b4e2 34be
00000360: 1537 10bd 73a8 613d db6c 153c 3673 c13b
00000370: 43a3 24bc 7690 c2bd 462a 36bd 036f c13c
00000380: 705c f53d 325b 8f3d bbca a3bd 8777 d33b
00000390: 9300 85bd 38eb ec3d 3071 b13d 6f48 1dbd
000003a0: 1cd9 1a3d b5dd 483d 41d6 b43b 8e80 86bd
000003b0: 4b1d 063b 0874 843d 6921 a63d e0fa c6bb
000003c0: 7837 323d a844 593d 908a 633d 8515 af3c
000003d0: da54 7dbd e575 3a3d 91c8 96bd 9067 a1bd
000003e0: 8992 c7bd ff3c c7bd a496 bebc 42c4 dfbd
000003f0: 222f f03c ca9c 6fba 2cb4 eb3c 073c 113c

fc2.bias f4 [84]
-0.07034109 0.26756606 -0.08370144 -0.22650975 0.10051067 0.16243795 0.08268504 0.0617861
-0.17513661 0.13580695 0.07032465 0.20700859 -0.110310316 0.1582298 -0.035316948 0.03635709
-0.040825613 -0.0711767 0.04326108 -0.12264832 0.29840755 0.026551953 0.02844999 -0.10751111
0.08470796 -0.056861926 -0.064423 -0.022402426 -0.06582782 -0.06144759 -0.008268075 0.1838699
0.23814934 0.02271474 -0.09574062 -0.10820238 -0.12697385 -0.13494003 -0.12808377 -0.21162578
0.009316778 -0.018850423 0.03997417 -0.07855189 -0.00036496314 0.15955622 -0.00960346 0.3407982
-0.13016854 -0.032779828 -0.03387309 -0.008576951 0.13911524 0.16380121 -0.030084955 0.17357841
-0.13980176 -0.08228741 -0.038536724 0.08457361 0.08708726 0.17876238 0.30164373 0.019448066
0.43223557 0.099263 -0.20265372 -0.047717832 -0.09196074 0.24315634 0.040521976 -0.30485323
0.030117812 -0.03211025 -0.054936673 -0.3551009 0.056303874 0.037437376 -0.0930974 0.18479563
0.0057468456 0.17676188 -0.112046964 0.006116297
00000000: fd0e 90bd 6bfe 883e a96b abbd 2cf2 67be
00000010: 8ad8 cd3d 2256 263e c656 a93d 6c13 7d3d
00000020: 0357 33be fa10 0b3e 5f06 903d 0ffa 533e
00000030: 60ea e1bd fe06 223e 81a8 10bd 2ceb 143d
00000040: c238 27bd 17c5 91bd 8832 313d 0b2f fbbd
00000050: e0c8 983e 7b83 d93c f40f e93c c92e dcbd
00000060: 5e7b ad3d 0de8 68bd 35f0 83bd 4b85 b7bc
00000070: bcd0 86bd 78b0 7bbd d276 07bc 6448 3c3e
00000080: 6cdd 733e 4314 ba3c a813 c4bd 3699 ddbd
00000090: 6f05 02be b82d 0abe 6428 03be 6eb4 58be
000000a0: 66a5 183c 346c 9abc f5bb 233d d0df a0bd
000000b0: 8658 bfb9 b562 233e d557 1dbc 1a7d ae3e
000000c0: e74a 05be 2444 06bd 82be 0abd 5786 0cbc
000000d0: 3a74 0e3e 81bb 273e b974 f6bc 8abe 313e
000000e0: 3128 0fbe 4d86 a8bd afd8 1dbd ee34 ad3d
000000f0: ce5a b23d 7c0d 373e 0c71 9a3e 8d51 9f3c
00000100: fb4d dd3e 664a cb3d 7584 4fbe c673 43bd
00000110: ea55 bcbd fafd 783e 5ffa 253d b915 9cbe
00000120: a1b9 f63c 0a86 03bd 4705 61bd c9cf b5be
00000130: e49e 663d ef57 193d daa9 bebd 113b 3d3e
00000140: 0950 bc3b 1101 353e e178 e5bd 386b c83b

fc3.weight f4 [47, 84]
-0.0013876826 -0.33932358 0.017406322 0.026816893 -0.13585813 0.1916093 0.032246273 -0.16775906
0.053144608 -0.13051087 -0.027730675 -0.19078356 -0.32549816 -0.24922113 0.08915258 -0.071196795
-0.10550886 0.16362561 -0.080218114 -0.05076179 -0.17645666 0.18242317 0.13614398 -0.13450833
-0.17826979 0.13887087 0.0313318 0.0817894 -0.1307807 -0.09066804 -0.097954236 0.0037986808
-0.0007070875 -0.043315567 -0.100180365 -0.1469325 -0.035971057 -0.06997712 -0.04485493 0.08557297
-0.11016517 0.06797244 -0.06806067 -0.040838838 0.058417965 -0.0070161996 -0.19002989 -0.117911294
-0.14518914 0.058231793 0.03576036 -0.035542354 0.071672656 0.0846611 -0.030089717 0.026946852
-0.016649162 0.012008704 -0.20788766 -0.045710757 0.08175483 -0.28567514 0.020733256 -0.02942962
-0.28152516 0.043217316 -0.10257884 0.11110309 -0.03028852 0.15103157 -0.023570117 0.15579523
-0.03803572 -0.2724947 -0.048899002 0.12765594 -0.1305071 0.14458475 -0.017905425 -0.21807556
0.08297691 0.040481273 0.05832661 0.17984608 -0.010708858 0.068280995 -0.07358798 -0.025127329
0.10940628 0.14960563 -0.17465188 -0.047908254 -0.19513543 0.10953307 0.04633516 0.008521965
0.18966854 -0.016902275 0.0606982 0.009043284 -0.10653692 -0.04501811 0.0041053896 0.056567427
-0.15095465 0.12189628 0.07097166 0.030637695 0.008548697 0.03350978 -0.067336 -0.08424322
-0.08922177 -0.009570328 -0.060240306 -0.266331 -0.027580956 -0.008657351 0.08779613 -0.09411708
0.061848864 -0.08569536 -0.121152736 -0.008142184 0.041154258 -0.2968043 0.05856575 -0.012321047
-0.013224691 0.025238883 -0.1633342 -0.030533316 0.022785986 -0.0049791504 -0.022045005 0.007311628
-0.089419395 0.06985638 0.04562179 0.1170495 -0.043770812 -0.077544406 -0.00023298814 -0.025283983
0.11605579 0.13221659 0.0029111388 -0.06269446 0.068387814 -0.13919269 -0.14042957 -0.06935682
-0.20169751 0.00045566531 0.116434954 0.022965591 0.10611635 -0.014697932 -0.006397188 0.058973853
0.032168195 -0.24733527 0.11578234 -0.030416688 -0.10271417 -0.41916442 -0.057791363 -0.16639867
0.047545668 0.08872838 -0.06589022 0.08242142 0.065989226 -0.064539 -0.13401058 0.018274123
0.04814292 0.0042612855 -0.15081427 -0.1082562 0.023885354 0.12121644 0.08565325 -0.06321649
0.03464567 0.12490077 -0.14733556 -0.11990704 -0.14644946 -0.03957128 0.018117327 0.037128184
0.012340711 0.1300418 -0.16505648 0.051301617 -0.0014123667 -0.14488558 0.100091204 0.34905553
-0.14076272 0.15272838 0.018471994 -0.07262777 -0.009056675 -0.18379764 -0.14401099 -0.07331581
-0.059933983 0.032540772 -0.10202252 -0.04485772 0.009841706 0.043079987 -0.12146358 -0.14512275
-0.12530515 0.021961983 -0.01343206 -0.041650277 -0.0919066 -0.17419793 0.00050087564 -0.0068127993
0.036259267 0.08603087 0.030558543 0.1502316 0.0025456485 0.049233552 -0.15776645 -0.24843213
-0.008609394 -0.3367565 -0.25780162 0.014528703 -0.1753682 -0.45565552 0.009076716 -0.054171983
-0.033425514 -0.007666914 0.02800461 -0.13670628 0.15416801 -0.081603885 -0.1013674 0.17763638
-0.041000895 -0.01827458 -0.11082587 -0.022252759 0.054575708 0.083348155 -0.010333621 0.08991809
00000000: e7e2 b5ba d2bb adbe b497 8e3c 1aaf db3c
00000010: 651e 0bbe 3a35 443e ab14 043d 08c9 2bbe
00000020: 29ae 593d a4a4 05be 712b e3bc c45c 43be
00000030: b2a7 a6be d333 7fbe a195 b63d a0cf 91bd
00000040: 0715 d8bd 798d 273e 6549 a4bd 98eb 4fbd
00000050: 0eb1 34be 24cd 3a3e 5469 0b3e 8dbc 09be
00000060: 5b8c 36be 2a34 0e3e c655 003d 3381 a73d
00000070: 60eb 05be 2ab0 b9bd 3b9c c8bd 4af3 783b
00000080: d75b 39ba aa6b 31bd 5d2b cdbd 7975 16be
00000090: 6356 13bd 2a50 8fbd ceb9 37bd e240 af3d
000000a0: 479e e1bd 2235 8b3d 6463 8bbd a046 27bd
000000b0: ad47 6f3d 26e8 e5bb 3297 42be 7a7b f1bd
000000c0: 76ac 14be 7684 6e3d 7579 123d dc94 11bd
000000d0: 1dc9 923d cc62 ad3d b67e f6bc a5bf dc3c
000000e0: d363 88bc 28c0 443c 81e0 54be 343b 3bbd
000000f0: 146f a73d 0344 92be cad8 a93c 6316 f1bc
00000100: 1124 90be a404 313d db14 d2bd 048a e33d
00000110: a11f f8bc 05a8 1a3e 1e16 c1bc c988 1f3e
00000120: 58cb 1bbd 6d84 8bbe 524a 48bd 3db8 023e
00000130: a7a3 05be 060e 143e 66ae 92bc 334f 5fbe
00000140: ccef a93d b1cf 253d e2e7 6e3d 9229 383e
00000150: 3574 2fbc e8d6 8b3d 4bb5 96bd d4d7 cdbc
00000160: 6610 e03d 3832 193e f1d7 32be 723b 44bd
00000170: 95d1 47be e052 e03d f0c9 3d3d b69f 0b3c
00000180: 7838 423e a476 8abc ad9e 783d 482a 143c
00000190: 0730 dabd e964 38bd 8186 863b 3fb3 673d
000001a0: db93 1abe c2a4 f93d 9759 913d e7fb fa3c
000001b0: d60f 0c3c 8d41 093d 75e7 89bd b687 acbd
000001c0: e7b9 b6bd ddcc 1cbc 8abe 76bd 895c 88be
000001d0: 75f1 e1bc 90d7 0dbc 75ce b33d 75c0 c0bd
000001e0: 3c55 7d3d 0d81 afbd ed1e f8bd cb66 05bc
000001f0: 5e91 283d bcf6 97be a4e2 6f3d 37de 49bc
00000200: 60ac 58bc c6c1 ce3c 1541 27be 0121 fabc
00000210: ada9 ba3c 2428 a3bb ba97 b4bc 6296 ef3b
00000220: 8421 b7bd dd10 8f3d eadd 3a3d a6b7 ef3d
00000230: 0649 33bd 9acf 9ebd 474e 74b9 5b20 cfbc
00000240: a8ae ed3d c963 073e cec8 3e3b f465 80bd
00000250: e90e 8c3d 8788 0ebe c5cc 0fbe f30a 8ebd
00000260: cb89 4ebe 5de6 ee39 7375 ee3d 5622 bc3c
00000270: 8753 d93d 98cf 70bc 819f d1bb 918e 713d
00000280: ccc2 033d 7545 7dbe 4b1f ed3d 6b2c f9bc
00000290: cf5b d2bd b89c d6be a3b6 6cbd 6a64 2abe
000002a0: 3fbf 423d 3ab7 b53d 74f1 86bd 90cc a83d
000002b0: 5c25 873d 062d 84bd 123a 09be 9db3 953c
000002c0: 8331 453d 41a2 8b3b 0e6f 1abe 6db5 ddbd
000002d0: 38ab c33c 5340 f83d f96a af3d a677 81bd
000002e0: 9ee8 0d3d facb ff3d 22df 16be d291 f5bd
000002f0: d9f6 15be 7f15 22bd ca6a 943c b913 183d
00000300: b230 4a3c ad29 053e 9104 29be a521 523d
00000310: 2a1f b9ba e35c 14be 9efc cc3d 68b7 b23e
00000320: 1a24 10be d464 1c3e 9452 973c debd 94bd
00000330: 7362 14bc 7335 3cbe 9e77 13be 9926 96bd
00000340: 567d 75bd 7949 053d 2ff1 d0bd bbbc 37bd
00000350: 1b3f 213c a474 303d e6c1 f8bd 0f9b 14be
00000360: fe4f 00be 9ee9 b33c 2512 5cbc 7b99 2abd
00000370: 8739 bcbd f160 32be 324d 033a e73d dfbb
00000380: 9984 143d f430 b03d e955 fa3c 50d6 193e
00000390: e5d4 263b 1fa9 493d 878d 21be fe64 7ebe
000003a0: 6a0e 0dbc 596b acbe 93fe 83be cc09 6e3c
000003b0: b993 33be ae4b e9be 82b6 143c 71e3 5dbd
000003c0: 31e9 08bd bc3a fbbb ed69 e53c bbfc 0bbe
000003d0: 38de 1d3e f01f a7bd b699 cfbd 50e6 353e
000003e0: 8ef0 27bd 92b4 95bc acf8 e2bd 6b4b b6bc
000003f0: c78a 5f3d 70b2 aa3d 594e 29bc fa26 b83d

fc3.bias f4 [47]
-0.16187394 -0.03722217 -0.03384138 -0.109884866 -0.08937347 -0.37784225 0.0016402036 0.058708392
-0.03999454 0.15312468 -0.02727728 0.20728712 0.050951958 0.05254657 0.13181563 0.13274477
-0.25190365 -0.035509456 -0.24456435 0.018233389 0.0474025 -0.09091898 -0.08157532 0.11369698
0.15791237 0.050317727 0.27165982 0.09097496 -0.09167251 0.17404053 -0.23524071 -0.07166369
-0.044279568 0.19397895 0.10669813 -0.0076222457 -0.1486874 0.010723509 -0.005000055 0.15981323
-0.17863752 -0.022266082 0.030510128 -0.09643754 -0.004195082 -0.15239091 -0.17373922
00000000: 48c2 25be 4676 18bd 429d 0abd 510b e1bd
00000010: 7009 b7bd 8a74 c1be 1afc d63a 3678 703d
00000020: 51d1 23bd b7cc 1c3e 9a74 dfbc 1343 543e
00000030: 00b3 503d 123b 573d adfa 063e 3fee 073e
00000040: 84f9 80be 5d72 11bd 146f 7abe 305e 953c
00000050: 2029 423d bb33 babd f610 a7bd f6d9 e83d
00000060: c8b3 213e f619 4e3d ff16 8b3e 1451 ba3d
00000070: ccbe bbbd ae37 323e f1e2 70be 6ac4 92bd
00000080: 7e5e 35bd 6ba2 463e 8d84 da3d 08c4 f9bb
00000090: 8341 18be a8b1 2f3c 80d7 a3bb 14a6 233e
000000a0: c1ec 36be 5c67 b6bc 60f0 f93c 0c81 c5bd
000000b0: e676 89bb 5d0c 1cbe b2e8 31be
